…
ps://localhost:8080/"},"id":"92K7-_TIoR1f","executionInfo":{"status":"ok","timestamp":1715497865150,"user_tz":420,"elapsed":13,"user":{"displayName":"Shehriar Ali Khan","userId":"00206608725642581585"}},"outputId":"f52215b8-8a7e-4aaf-ac67-586ed56ebb59"},"execution_count":17,"outputs":[{"output_type":"stream","name":"stdout","text":["Model: \"sequential\"\n","_________________________________________________________________\n"," Layer (type)                Output Shape              Param #   \n","=================================================================\n"," conv2d (Conv2D)             (None, 254, 254, 32)      896       \n","                                                                 \n"," max_pooling2d (MaxPooling2  (None, 127, 127, 32)      0         \n"," D)                                                              \n","                                                                 \n"," conv2d_1 (Conv2D)           (None, 125, 125, 64)      18496     \n","                                                                 \n"," max_pooling2d_1 (MaxPoolin  (None, 62, 62, 64)        0         \n"," g2D)                                                            \n","                                                                 \n"," conv2d_2 (Conv2D)           (None, 60, 60, 128)       73856     \n","                                                                 \n"," flatten (Flatten)           (None, 460800)            0         \n","                                                                 \n"," dense (Dense)               (None, 128)               58982528  \n","                                                                 \n"," dense_1 (Dense)             (None, 64)                8256      \n","                                                                 \n"," dense_2 (Dense)             (None, 32)                2080      \n","                                                                 \n"," dense_3 (Dense)             (None, 15)                495       \n","                                                                 \n","=================================================================\n","Total params: 59086607 (225.40 MB)\n","Trainable params: 59086607 (225.40 MB)\n","Non-trainable params: 0 (0.00 Byte)\n","_________________________________________________________________\n"]}]},{"cell_type":"code","source":["model.compile(optimize
…
s://localhost:8080/"},"id":"9M7OkyCDrmmX","executionInfo":{"status":"ok","timestamp":1715499091611,"user_tz":420,"elapsed":9,"user":{"displayName":"Shehriar Ali Khan","userId":"00206608725642581585"}},"outputId":"78b55877-1502-40be-fd46-b26495dc59ad"},"execution_count":40,"outputs":[{"output_type":"stream","name":"stdout","text":["Model: \"sequential_3\"\n","_________________________________________________________________\n"," Layer (type)                Output Shape              Param #   \n","=================================================================\n"," vgg16 (Functional)          (None, 8, 8, 512)         14714688  \n","                                                                 \n"," flatten_1 (Flatten)         (None, 32768)             0         \n","                                                                 \n"," dense_8 (Dense)             (None, 128)               4194432   \n","                                                                 \n"," dense_9 (Dense)             (None, 64)                8256      \n","                                                                 \n"," dense_10 (Dense)            (None, 32)                2080      \n","                                                                 \n"," dense_11 (Dense)            (None, 15)                495       \n","                                                                 \n","=================================================================\n","Total params: 18919951 (72.17 MB)\n","Trainable params: 4205263 (16.04 MB)\n","Non-trainable params: 14714688 (56.13 MB)\n","_________________________________________________________________\n"]}]},{"cell_type":"code","source":["complete_model.comp
…
